 INFO - MEAN TEACHER
 INFO - subpart_data = None
 INFO - Using synthetic data = True
 INFO - ../dataset/metadata/train/weak.csv Total file number: 1578
 INFO - ../dataset/metadata/train/unlabel_in_domain.csv Total file number: 14412
 INFO - ../dataset/metadata/train/synthetic.csv Total file number: 2045
 INFO - ../dataset/metadata/validation/validation.csv Total file number: 1168
 INFO - computing mean
 INFO - ../dataset/metadata/validation/eval_dcase2018.csv Total file number: 880
 INFO - CRNN(
  (cnn): CNN(
    (cnn): Sequential(
      (conv0): Conv2d(1, 64, kernel_size=(3, 3), stride=(1, 1), padding=(1, 1))
      (batchnorm0): BatchNorm2d(64, eps=0.001, momentum=0.99, affine=True, track_running_stats=True)
      (glu0): GLU(
        (sigmoid): Sigmoid()
        (linear): Linear(in_features=64, out_features=64, bias=True)
      )
      (dropout0): Dropout(p=0.5)
      (pooling0): AvgPool2d(kernel_size=(2, 4), stride=(2, 4), padding=0)
      (conv1): Conv2d(64, 64, kernel_size=(3, 3), stride=(1, 1), padding=(1, 1))
      (batchnorm1): BatchNorm2d(64, eps=0.001, momentum=0.99, affine=True, track_running_stats=True)
      (glu1): GLU(
        (sigmoid): Sigmoid()
        (linear): Linear(in_features=64, out_features=64, bias=True)
      )
      (dropout1): Dropout(p=0.5)
      (pooling1): AvgPool2d(kernel_size=(2, 4), stride=(2, 4), padding=0)
      (conv2): Conv2d(64, 64, kernel_size=(3, 3), stride=(1, 1), padding=(1, 1))
      (batchnorm2): BatchNorm2d(64, eps=0.001, momentum=0.99, affine=True, track_running_stats=True)
      (glu2): GLU(
        (sigmoid): Sigmoid()
        (linear): Linear(in_features=64, out_features=64, bias=True)
      )
      (dropout2): Dropout(p=0.5)
      (pooling2): AvgPool2d(kernel_size=(2, 4), stride=(2, 4), padding=0)
    )
  )
  (rnn): BidirectionalGRU(
    (rnn): GRU(64, 64, num_layers=2, batch_first=True, bidirectional=True)
  )
  (dropout): Dropout(p=0.5)
  (dense): Linear(in_features=128, out_features=10, bias=True)
  (sigmoid): Sigmoid()
  (dense_softmax): Linear(in_features=128, out_features=10, bias=True)
  (softmax): Softmax()
)
 INFO - Epoch: 0	Time 62.14	lr 1.00E-03 	weak_class_loss 0.3775 	Weak EMA loss 0.3651 	Strong loss 0.1863 	Strong EMA loss 0.1917 	Consistency weight 0.0164 	Consistency strong 4.07E-05 	Consistency weak 3.98E-05 	Loss 0.5638 	
 INFO - 
 ### Valid synthetic metric ### 

 INFO - Event based metrics (onset-offset)
========================================
…
